…
        "id": "MHHznBod87WC",
        "outputId": "2398ebe5-58a6-4435-df75-41dc083b8444",
        "colab": {
          "base_uri": "https://localhost:8080/",
          "height": 1000
        }
      },
      "execution_count": 16,
      "outputs": [
        {
          "output_type": "stream",
          "name": "stdout",
          "text": [
            "Loading dataset for Model 2...\n",
            "Found dataset: train.csv\n",
            "Training samples: 22967\n",
            "Validation samples: 5742\n",
            "Model 2 architecture:\n",
            "DeeperCNN(\n",
            "  (conv1): Conv2d(1, 32, kernel_size=(3, 3), stride=(1, 1), padding=(1, 1))\n",
            "  (bn1): BatchNorm2d(32, eps=1e-05, momentum=0.1, affine=True, track_running_stats=True)\n",
            "  (pool1): MaxPool2d(kernel_size=2, stride=2, padding=0, dilation=1, ceil_mode=False)\n",
            "  (conv2): Conv2d(32, 64, kernel_size=(3, 3), stride=(1, 1), padding=(1, 1))\n",
            "  (bn2): BatchNorm2d(64, eps=1e-05, momentum=0.1, affine=True, track_running_stats=True)\n",
            "  (pool2): MaxPool2d(kernel_size=2, stride=2, padding=0, dilation=1, ceil_mode=False)\n",
            "  (conv3): Conv2d(64, 128, kernel_size=(3, 3), stride=(1, 1), padding=(1, 1))\n",
            "  (bn3): BatchNorm2d(128, eps=1e-05, momentum=0.1, affine=True, track_running_stats=True)\n",
            "  (pool3): MaxPool2d(kernel_size=2, stride=2, padding=0, dilation=1, ceil_mode=False)\n",
            "  (conv4): Conv2d(128, 256, kernel_size=(3, 3), stride=(1, 1), padding=(1, 1))\n",
            "  (bn4): BatchNorm2d(256, eps=1e-05, momentum=0.1, affine=True, track_running_stats=True)\n",
            "  (pool4): MaxPool2d(kernel_size=2, stride=2, padding=0, dilation=1, ceil_mode=False)\n",
            "  (fc1): Linear(in_features=2304, out_features=512, bias=True)\n",
            "  (bn_fc1): BatchNorm1d(512, eps=1e-05, momentum=0.1, affine=True, track_running_stats=True)\n",
            "  (dropout1): Dropout(p=0.5, inplace=False)\n",
            "  (fc2): Linear(in_features=512, out_features=128, bias=True)\n",
            "  (dropout2): Dropout(p=0.25, inplace=False)\n",
            "  (fc3): Linear(in_features=128, out_features=7, bias=True)\n",
            ")\n",
            "Total parameters: 1,636,551\n",
            "Trainable parameters: 1,636,551\n",
            "\n",
            "Starting training of Model 2 (Deeper CNN)...\n"
          ]
        },
        {
          "output_type": "stream",
          "name": "stderr",
          "text": [
            "Epoch 1/60 [Train]: 100%|██████████| 718/718 [00:33<00:00, 21.20it/s, Loss=1.3245]\n"
…
