…
        "id": "_4nnaCXmENxX",
        "outputId": "e2de8676-7403-407b-b3c1-94e451e1ae64"
      },
      "execution_count": null,
      "outputs": [
        {
          "output_type": "stream",
          "name": "stdout",
          "text": [
            "Loading dataset for Model 3 (Advanced ResNet)...\n",
            "No dataset found. Creating sample data...\n",
            "Created sample dataset with 10000 samples\n",
            "Training samples: 8000\n",
            "Validation samples: 2000\n",
            "Model 3 architecture:\n",
            "AdvancedResNetFER(\n",
            "  (conv1): Conv2d(1, 64, kernel_size=(7, 7), stride=(2, 2), padding=(3, 3), bias=False)\n",
            "  (bn1): BatchNorm2d(64, eps=1e-05, momentum=0.1, affine=True, track_running_stats=True)\n",
            "  (relu): ReLU(inplace=True)\n",
            "  (maxpool): MaxPool2d(kernel_size=3, stride=2, padding=1, dilation=1, ceil_mode=False)\n",
            "  (stage1): Sequential(\n",
            "    (0): ResidualBlock(\n",
            "      (conv1): Conv2d(64, 64, kernel_size=(3, 3), stride=(1, 1), padding=(1, 1), bias=False)\n",
            "      (bn1): BatchNorm2d(64, eps=1e-05, momentum=0.1, affine=True, track_running_stats=True)\n",
            "      (relu): ReLU(inplace=True)\n",
            "      (conv2): Conv2d(64, 64, kernel_size=(3, 3), stride=(1, 1), padding=(1, 1), bias=False)\n",
            "      (bn2): BatchNorm2d(64, eps=1e-05, momentum=0.1, affine=True, track_running_stats=True)\n",
            "      (cbam): CBAM(\n",
            "        (channel_attention): ChannelAttention(\n",
            "          (avg_pool): AdaptiveAvgPool2d(output_size=1)\n",
            "          (max_pool): AdaptiveMaxPool2d(output_size=1)\n",
            "          (fc): Sequential(\n",
            "            (0): Conv2d(64, 4, kernel_size=(1, 1), stride=(1, 1), bias=False)\n",
            "            (1): ReLU(inplace=True)\n",
            "            (2): Conv2d(4, 64, kernel_size=(1, 1), stride=(1, 1), bias=False)\n",
            "          )\n",
            "          (sigmoid): Sigmoid()\n",
            "        )\n",
            "        (spatial_attention): SpatialAttention(\n",
            "          (conv1): Conv2d(2, 1, kernel_size=(7, 7), stride=(1, 1), padding=(3, 3), bias=False)\n",
            "          (sigmoid): Sigmoid()\n",
            "        )\n",
            "      )\n",
            "    )\n",
            "    (1): ResidualBlock(\n",
            "      (conv1): Conv2d(64, 64, kernel_size=(3, 3), stride=(1, 1), padding=(1, 1), bias=False)\n",
            "      (bn1): BatchNorm2d(64, eps=1e-05, momentum=0.1, affine=True, track_running_stats=True)\n",
            "      (relu): ReLU(inplace=True)\n",
            "      (conv2): Conv2d(64, 64, kernel_size=(3, 3), stride=(1, 1), padding=(1, 1), bias=False)\n",
            "      (bn2): BatchNorm2d(64, eps=1e-05, momentum=0.1, affine=True, track_running_stats=True)\n",
            "      (cbam): CBAM(\n",
            "        (channel_attention): ChannelAttention(\n",
            "          (avg_pool): AdaptiveAvgPool2d(output_size=1)\n",
            "          (max_pool): AdaptiveMaxPool2d(output_size=1)\n",
            "          (fc): Sequential(\n",
            "            (0): Conv2d(64, 4, kernel_size=(1, 1), stride=(1, 1), bias=False)\n",
            "            (1): ReLU(inplace=True)\n",
            "            (2): Conv2d(4, 64, kernel_size=(1, 1), stride=(1, 1), bias=False)\n",
            "          )\n",
            "          (sigmoid): Sigmoid()\n",
            "        )\n",
            "        (spatial_attention): SpatialAttention(\n",
            "          (conv1): Conv2d(2, 1, kernel_size=(7, 7), stride=(1, 1), padding=(3, 3), bias=False)\n",
            "          (sigmoid): Sigmoid()\n",
            "        )\n",
            "      )\n",
            "    )\n",
            "  )\n",
            "  (stage2): Sequential(\n",
            "    (0): ResidualBlock(\n",
            "      (conv1): Conv2d(64, 128, kernel_size=(3, 3), stride=(2, 2), padding=(1, 1), bias=False)\n",
            "      (bn1): BatchNorm2d(128, eps=1e-05, momentum=0.1, affine=True, track_running_stats=True)\n",
            "      (relu): ReLU(inplace=True)\n",
            "      (conv2): Conv2d(128, 128, kernel_size=(3, 3), stride=(1, 1), padding=(1, 1), bias=False)\n",
            "      (bn2): BatchNorm2d(128, eps=1e-05, momentum=0.1, affine=True, track_running_stats=True)\n",
            "      (downsample): Sequential(\n",
            "        (0): Conv2d(64, 128, kernel_size=(1, 1), stride=(2, 2), bias=False)\n",
            "        (1): BatchNorm2d(128, eps=1e-05, momentum=0.1, affine=True, track_running_stats=True)\n",
            "      )\n",
            "      (cbam): CBAM(\n",
            "        (channel_attention): ChannelAttention(\n",
            "          (avg_pool): AdaptiveAvgPool2d(output_size=1)\n",
            "          (max_pool): AdaptiveMaxPool2d(output_size=1)\n",
            "          (fc): Sequential(\n",
            "            (0): Conv2d(128, 8, kernel_size=(1, 1), stride=(1, 1), bias=False)\n",
            "            (1): ReLU(inplace=True)\n",
            "            (2): Conv2d(8, 128, kernel_size=(1, 1), stride=(1, 1), bias=False)\n",
            "          )\n",
            "          (sigmoid): Sigmoid()\n",
            "        )\n",
            "        (spatial_attention): SpatialAttention(\n",
            "          (conv1): Conv2d(2, 1, kernel_size=(7, 7), stride=(1, 1), padding=(3, 3), bias=False)\n",
            "          (sigmoid): Sigmoid()\n",
            "        )\n",
            "      )\n",
            "    )\n",
            "    (1): ResidualBlock(\n",
            "      (conv1): Conv2d(128, 128, kernel_size=(3, 3), stride=(1, 1), padding=(1, 1), bias=False)\n",
            "      (bn1): BatchNorm2d(128, eps=1e-05, momentum=0.1, affine=True, track_running_stats=True)\n",
            "      (relu): ReLU(inplace=True)\n",
            "      (conv2): Conv2d(128, 128, kernel_size=(3, 3), stride=(1, 1), padding=(1, 1), bias=False)\n",
            "      (bn2): BatchNorm2d(128, eps=1e-05, momentum=0.1, affine=True, track_running_stats=True)\n",
            "      (cbam): CBAM(\n",
            "        (channel_attention): ChannelAttention(\n",
            "          (avg_pool): AdaptiveAvgPool2d(output_size=1)\n",
            "          (max_pool): AdaptiveMaxPool2d(output_size=1)\n",
            "          (fc): Sequential(\n",
            "            (0): Conv2d(128, 8, kernel_size=(1, 1), stride=(1, 1), bias=False)\n",
            "            (1): ReLU(inplace=True)\n",
            "            (2): Conv2d(8, 128, kernel_size=(1, 1), stride=(1, 1), bias=False)\n",
            "          )\n",
            "          (sigmoid): Sigmoid()\n",
            "        )\n",
            "        (spatial_attention): SpatialAttention(\n",
            "          (conv1): Conv2d(2, 1, kernel_size=(7, 7), stride=(1, 1), padding=(3, 3), bias=False)\n",
            "          (sigmoid): Sigmoid()\n",
            "        )\n",
            "      )\n",
            "    )\n",
            "  )\n",
            "  (stage3): Sequential(\n",
            "    (0): ResidualBlock(\n",
            "      (conv1): Conv2d(128, 256, kernel_size=(3, 3), stride=(2, 2), padding=(1, 1), bias=False)\n",
            "      (bn1): BatchNorm2d(256, eps=1e-05, momentum=0.1, affine=True, track_running_stats=True)\n",
            "      (relu): ReLU(inplace=True)\n",
            "      (conv2): Conv2d(256, 256, kernel_size=(3, 3), stride=(1, 1), padding=(1, 1), bias=False)\n",
            "      (bn2): BatchNorm2d(256, eps=1e-05, momentum=0.1, affine=True, track_running_stats=True)\n",
            "      (downsample): Sequential(\n",
            "        (0): Conv2d(128, 256, kernel_size=(1, 1), stride=(2, 2), bias=False)\n",
            "        (1): BatchNorm2d(256, eps=1e-05, momentum=0.1, affine=True, track_running_stats=True)\n",
            "      )\n",
            "      (cbam): CBAM(\n",
            "        (channel_attention): ChannelAttention(\n",
            "          (avg_pool): AdaptiveAvgPool2d(output_size=1)\n",
            "          (max_pool): AdaptiveMaxPool2d(output_size=1)\n",
            "          (fc): Sequential(\n",
            "            (0): Conv2d(256, 16, kernel_size=(1, 1), stride=(1, 1), bias=False)\n",
            "            (1): ReLU(inplace=True)\n",
            "            (2): Conv2d(16, 256, kernel_size=(1, 1), stride=(1, 1), bias=False)\n",
            "          )\n",
            "          (sigmoid): Sigmoid()\n",
            "        )\n",
            "        (spatial_attention): SpatialAttention(\n",
            "          (conv1): Conv2d(2, 1, kernel_size=(7, 7), stride=(1, 1), padding=(3, 3), bias=False)\n",
            "          (sigmoid): Sigmoid()\n",
            "        )\n",
            "      )\n",
            "    )\n",
            "    (1): ResidualBlock(\n",
            "      (conv1): Conv2d(256, 256, kernel_size=(3, 3), stride=(1, 1), padding=(1, 1), bias=False)\n",
            "      (bn1): BatchNorm2d(256, eps=1e-05, momentum=0.1, affine=True, track_running_stats=True)\n",
            "      (relu): ReLU(inplace=True)\n",
            "      (conv2): Conv2d(256, 256, kernel_size=(3, 3), stride=(1, 1), padding=(1, 1), bias=False)\n",
            "      (bn2): BatchNorm2d(256, eps=1e-05, momentum=0.1, affine=True, track_running_stats=True)\n",
            "      (cbam): CBAM(\n",
            "        (channel_attention): ChannelAttention(\n",
            "          (avg_pool): AdaptiveAvgPool2d(output_size=1)\n",
            "          (max_pool): AdaptiveMaxPool2d(output_size=1)\n",
            "          (fc): Sequential(\n",
            "            (0): Conv2d(256, 16, kernel_size=(1, 1), stride=(1, 1), bias=False)\n",
            "            (1): ReLU(inplace=True)\n",
            "            (2): Conv2d(16, 256, kernel_size=(1, 1), stride=(1, 1), bias=False)\n",
            "          )\n",
            "          (sigmoid): Sigmoid()\n",
            "        )\n",
            "        (spatial_attention): SpatialAttention(\n",
            "          (conv1): Conv2d(2, 1, kernel_size=(7, 7), stride=(1, 1), padding=(3, 3), bias=False)\n",
            "          (sigmoid): Sigmoid()\n",
            "        )\n",
            "      )\n",
            "    )\n",
            "  )\n",
            "  (stage4): Sequential(\n",
            "    (0): ResidualBlock(\n",
            "      (conv1): Conv2d(256, 512, kernel_size=(3, 3), stride=(2, 2), padding=(1, 1), bias=False)\n",
            "      (bn1): BatchNorm2d(512, eps=1e-05, momentum=0.1, affine=True, track_running_stats=True)\n",
            "      (relu): ReLU(inplace=True)\n",
            "      (conv2): Conv2d(512, 512, kernel_size=(3, 3), stride=(1, 1), padding=(1, 1), bias=False)\n",
            "      (bn2): BatchNorm2d(512, eps=1e-05, momentum=0.1, affine=True, track_running_stats=True)\n",
            "      (downsample): Sequential(\n",
            "        (0): Conv2d(256, 512, kernel_size=(1, 1), stride=(2, 2), bias=False)\n",
            "        (1): BatchNorm2d(512, eps=1e-05, momentum=0.1, affine=True, track_running_stats=True)\n",
            "      )\n",
            "      (cbam): CBAM(\n",
            "        (channel_attention): ChannelAttention(\n",
            "          (avg_pool): AdaptiveAvgPool2d(output_size=1)\n",
            "          (max_pool): AdaptiveMaxPool2d(output_size=1)\n",
            "          (fc): Sequential(\n",
            "            (0): Conv2d(512, 32, kernel_size=(1, 1), stride=(1, 1), bias=False)\n",
            "            (1): ReLU(inplace=True)\n",
            "            (2): Conv2d(32, 512, kernel_size=(1, 1), stride=(1, 1), bias=False)\n",
            "          )\n",
            "          (sigmoid): Sigmoid()\n",
            "        )\n",
            "        (spatial_attention): SpatialAttention(\n",
            "          (conv1): Conv2d(2, 1, kernel_size=(7, 7), stride=(1, 1), padding=(3, 3), bias=False)\n",
            "          (sigmoid): Sigmoid()\n",
            "        )\n",
            "      )\n",
            "    )\n",
            "    (1): ResidualBlock(\n",
            "      (conv1): Conv2d(512, 512, kernel_size=(3, 3), stride=(1, 1), padding=(1, 1), bias=False)\n",
            "      (bn1): BatchNorm2d(512, eps=1e-05, momentum=0.1, affine=True, track_running_stats=True)\n",
            "      (relu): ReLU(inplace=True)\n",
            "      (conv2): Conv2d(512, 512, kernel_size=(3, 3), stride=(1, 1), padding=(1, 1), bias=False)\n",
            "      (bn2): BatchNorm2d(512, eps=1e-05, momentum=0.1, affine=True, track_running_stats=True)\n",
            "      (cbam): CBAM(\n",
            "        (channel_attention): ChannelAttention(\n",
            "          (avg_pool): AdaptiveAvgPool2d(output_size=1)\n",
            "          (max_pool): AdaptiveMaxPool2d(output_size=1)\n",
            "          (fc): Sequential(\n",
            "            (0): Conv2d(512, 32, kernel_size=(1, 1), stride=(1, 1), bias=False)\n",
            "            (1): ReLU(inplace=True)\n",
            "            (2): Conv2d(32, 512, kernel_size=(1, 1), stride=(1, 1), bias=False)\n",
            "          )\n",
            "          (sigmoid): Sigmoid()\n",
            "        )\n",
            "        (spatial_attention): SpatialAttention(\n",
            "          (conv1): Conv2d(2, 1, kernel_size=(7, 7), stride=(1, 1), padding=(3, 3), bias=False)\n",
            "          (sigmoid): Sigmoid()\n",
            "        )\n",
            "      )\n",
            "    )\n",
            "  )\n",
            "  (avgpool): AdaptiveAvgPool2d(output_size=(1, 1))\n",
            "  (dropout): Dropout(p=0.3, inplace=False)\n",
            "  (fc): Linear(in_features=512, out_features=7, bias=True)\n",
            ")\n",
            "Total parameters: 11,261,655\n",
            "Trainable parameters: 11,261,655\n",
            "\n",
            "Starting training of Model 3 (Advanced ResNet + Attention)...\n"
          ]
        },
        {
          "output_type": "stream",
          "name": "stderr",
          "text": [
            "Epoch 1/80 [Train]: 100%|██████████| 500/500 [04:49<00:00,  1.73it/s, Loss=1.9613]\n"
…
